AI_Engine/models/geometry_corrector.onnx (onnx, 451622 bytes, 30 tensors)

input_embed.bias f4 [128]
000000 8f 4f 00 3f 80 a4 09 bf 94 4b 10 3f 64 75 d9 3e
       0.50121397 -0.5376663 0.56365323 0.42472374
000010 0d 99 29 3f ba 0e 14 bf bc 37 33 3f 85 6e d7 be
       0.6624916 -0.5783497 0.7000692 -0.42076507
000020 fc 69 0b 3e 09 c6 23 3f f2 52 96 be f7 6d 57 bb
       0.13614649 0.6397405 -0.29360157 -0.003287194
000030 62 64 65 be 12 2b 53 bf 9b 61 36 3e e8 c1 37 bf
       -0.22401574 -0.82487595 0.17810671 -0.7178025
000040 77 97 18 3f 44 6a ef 3e ed db 2c 3f 05 03 49 be
       0.59606117 0.46760762 0.6752308 -0.19630058
000050 d3 8c 6a bf 44 c2 b0 3d 44 6e c2 3e 6e bc 89 bf
       -0.9162113 0.08630803 0.3797475 -1.0760629
000060 cf df 2d be 70 70 e3 be d3 31 91 3d 73 45 07 bf
       -0.16979907 -0.4442172 0.07089581 -0.52840346
000070 73 71 99 bf 48 94 ac be 15 ae 82 bf f8 c5 23 3f
       -1.1987747 -0.3370688 -1.0209376 0.6397395
000080 be 43 42 3f 3c bc 09 be 61 aa 07 be ac 7d e5 be
       0.75884616 -0.13450712 -0.13248588 -0.44822443
000090 dd 7b 22 bf 26 2f f5 be 27 b0 4f 3e c7 d3 f9 be
       -0.6347025 -0.47887534 0.2028204 -0.48794386
0000a0 c6 b4 8c be 19 7c f0 3d 5b d3 ce be 91 d1 a1 be
       -0.2748167 0.1174242 -0.40395626 -0.316052
0000b0 72 73 75 3e 67 2d c4 be eb cc e0 be 4f 23 c0 be
       0.2396982 -0.3831589 -0.4390634 -0.37526938
0000c0 4c 6d 1c bf 66 13 47 3f 3e 64 b9 be 84 33 ab 3e
       -0.61104274 0.77763975 -0.3620929 0.3343774
0000d0 c3 39 5e be 26 49 07 3b 76 76 3b 3f 2b 3c 7c 3e
       -0.21701722 0.0020642965 0.7322763 0.24632327
0000e0 48 aa 27 bf eb ec ef 3e 9e fb 89 3f df 74 b7 3e
       -0.65494204 0.46860442 1.0779912 0.35831353
0000f0 da 61 35 3f 48 bf 2f 3f d5 74 a2 be 0b e3 da 3e
       0.70852435 0.6865125 -0.3172976 0.42751345
000100 21 dc f8 be 12 5a 94 be 30 1c 1f 3f 77 51 6c 3e
       -0.48605445 -0.28974968 0.62152386 0.23077951
000110 f4 73 31 bf 18 97 59 bf fa 43 18 bf 98 4c 82 bf
       -0.69317555 -0.84996176 -0.59478724 -1.0179625
000120 b4 8f 40 bf 07 8f f5 bd 06 43 e5 3e 9b 5f f2 3e
       -0.75219274 -0.11990171 0.44777697 0.47338566
000130 fe 25 d3 be d1 e3 ec be 26 b4 c8 3e d0 c7 79 bf
       -0.41239923 -0.4626756 0.39199942 -0.97570515
000140 f7 87 48 bc 25 b3 dd 3e 4d 7d 70 bf 73 68 02 be
       -0.012239448 0.4330074 -0.93941194 -0.12735157
000150 14 90 a5 be 3e e4 81 3e 6f 56 f6 be 1f 4d 2c bf
       -0.32336485 0.25369447 -0.4811282 -0.6730518
000160 25 47 5b bf a2 e1 00 bf a1 91 83 3f 13 ff 23 bf
       -0.8565543 -0.5034429 1.0278817 -0.6406109
000170 d7 1a 08 bf 7e 6d c1 3e 2e 7a f1 3e db d3 5f 3f
       -0.53165954 0.37778848 0.47163528 0.8743264
000180 4f 42 dd 3e b4 a9 10 3f 8c 43 f6 bf e9 c0 2b be
       0.43214652 0.56508946 -1.9239364 -0.16772808
000190 0c 93 c3 3e 80 8f ee ba 8f 1b ab be ec 76 50 3f
       0.38198125 -0.0018200725 -0.33419463 0.8143146
0001a0 39 69 51 be 6f 07 0c bf 92 5e 43 bf 25 76 88 3c
       -0.20450296 -0.5469884 -0.7631618 0.016657898
0001b0 8b d8 15 3f c1 4a dc 3e a6 0b 06 3e 61 3a 5a bf
       0.58533543 0.43025783 0.13090381 -0.8524533
0001c0 f1 4b 21 bf 14 43 a9 bd bc 5f 20 3f 54 53 04 3f
       -0.630065 -0.08264747 0.6264608 0.5168965
0001d0 33 75 07 bf 76 98 df bd eb a8 80 bf 75 a4 74 bc
       -0.52913207 -0.109177515 -1.005155 -0.014931788
0001e0 57 3e 39 3e 2d cb fc 3e 61 75 3d 3f 92 dc 68 bf
       0.18090187 0.4937376 0.7400723 -0.90961564
0001f0 f4 fa 29 3f 5a 01 01 bf 09 86 6c 3e c3 a9 26 3f
       0.6639855 -0.5039269 0.23098005 0.65102786

conv_layers.0.linear.bias f4 [128]
000000 32 48 b3 be 9c 1b b3 3d 1b 9d 57 3f d4 c8 37 be
       -0.35016018 0.087455004 0.842241 -0.17947704
000010 b5 a8 cb be 04 41 a7 3e b3 0f 8b 3e a4 e6 de be
       -0.3977715 0.3266679 0.27160415 -0.4353534
000020 be cd 08 bf 79 c1 36 3e c8 68 0d 3f ff 5d 2e 3f
       -0.5343894 0.17847241 0.5523801 0.68112177
000030 bb 52 df 3d 0d 6c 86 3e 83 2d f6 3e 09 a0 94 3d
       0.109044515 0.2625431 0.48081598 0.07257087
000040 6d 35 e0 be c7 3f ac be 9c 3c 4f be 09 7e 1d 3e
       -0.4379076 -0.33642408 -0.20237964 0.1538011
000050 8b 37 d4 3e 8c d6 a5 be d2 1f ba 3e 71 a7 32 be
       0.41448626 -0.3239025 0.36352402 -0.17446686
000060 4e 37 a4 bd be 35 92 bd d9 20 d1 be 75 00 c6 3e
       -0.08018361 -0.07139157 -0.40845373 0.38672224
000070 f3 8b e5 3e c0 76 57 bf b2 c9 1b 3f ae 12 31 3f
       0.44833335 -0.84165573 0.6085464 0.6916913
000080 ee 1c 32 3f 2c 38 1a bf 3a 7a da bd f7 6e b9 3e
       0.69575393 -0.6024196 -0.10667844 0.36217472
000090 c5 14 32 bf fe 4a 04 bf cf 3d 00 3f 0f 36 26 bd
       -0.6956294 -0.5167693 0.5009431 -0.040578898
0000a0 58 f2 27 bd 37 43 f2 bc 91 d1 46 bc ac 90 91 3c
       -0.0410026 -0.029573066 -0.012134925 0.01776918
0000b0 37 0d e1 3e 8f a9 d7 3e a2 05 86 be a0 24 36 3f
       0.43955395 0.4212155 -0.26176172 0.71149635
0000c0 b4 fc df be 73 d2 01 bf 5f 2e 7a be f2 82 71 3e
       -0.43747485 -0.50711745 -0.24431752 0.23585108
0000d0 18 cd eb 3d ea d0 01 3f bb 84 17 bf d7 14 2e be
       0.11513728 0.507094 -0.59186906 -0.17000137
0000e0 bb 39 ac bd 39 f1 fa 3e 5f 85 01 3c 59 98 ec 3e
       -0.08409449 0.49012163 0.007905333 0.46209982
0000f0 10 0c 20 3e 89 67 ee be f7 b2 c3 3e a1 72 0e bf
       0.15629601 -0.46563366 0.38222477 -0.5564366
000100 1b 26 d6 3d aa 07 18 bf 04 b7 10 bf 75 f5 11 3f
       0.10456487 -0.59386694 -0.5652926 0.5701516
000110 c4 f0 0f bf 16 25 c0 3d 52 0d d9 bd 4c 7d 24 3b
       -0.56226754 0.093820736 -0.10598244 0.0025099097
000120 4b 2f 65 3e 05 f1 42 bd 4e 55 40 bf c0 db 7a bd
       0.22381322 -0.047593135 -0.75130165 -0.061244726
000130 64 d1 00 be de 61 c4 be 8d 97 06 bd 34 79 87 3e
       -0.12579876 -0.38355917 -0.032859374 0.26459658
000140 51 64 a7 be 86 08 fc be 2c 77 ca 3d 05 26 ec be
       -0.32693723 -0.49225253 0.098860115 -0.46122757
000150 e0 4f 51 3f ab 6a e3 3e 65 33 0e be 31 4f 96 be
       0.81762505 0.4441732 -0.13886793 -0.29357293
000160 6c c7 9d 3e 24 54 89 bd 49 37 2d 3e eb 4d 46 3f
       0.3081621 -0.06705502 0.16915621 0.77462643
000170 31 e6 c2 be 7d 1c 3f bc aa 09 d8 3e 0c a0 15 3e
       -0.38066247 -0.011664507 0.42194873 0.14611834
000180 f8 77 10 be ff bb 15 3f eb 08 52 3f e5 d1 36 3f
       -0.14108264 0.58489984 0.8204486 0.71414024
000190 ab 0f 88 be 2f ba cf bd ed d6 d6 bd 29 60 0d bf
       -0.26574454 -0.101429336 -0.104902126 -0.55224854
0001a0 0d b3 26 3d 03 2f ce 3e 3a e7 6d 3f 42 fd 18 be
       0.0406981 0.40270242 0.9293095 -0.1494036
0001b0 5e 83 36 be 3a 44 5e be 04 c1 4b 3d 27 52 57 3f
       -0.1782355 -0.21705714 0.04974462 0.8410973
0001c0 3b e8 1c 3f 19 06 a3 be 39 53 57 bf 46 c9 01 bf
       0.61291856 -0.3184059 -0.8411136 -0.50697744
0001d0 ff 73 91 bd 1c 9b 55 3d 45 76 ea 3e 05 30 16 be
       -0.071022026 0.052149877 0.45793357 -0.14666755
0001e0 46 20 9f be d9 00 8f be 8c e9 b7 3e 91 f5 ee 3d
       -0.3107931 -0.27930334 0.3592037 0.11667932
0001f0 db 23 63 3e 6f 57 93 3e 90 25 79 be a9 96 d2 be
       0.22181647 0.28777644 -0.24330735 -0.4113057

conv_layers.0.neighbor_linear.bias f4 [128]
000000 d2 5c 45 be f2 ca 0d bd ef 99 3e 3f 14 f0 2b be
       -0.1927369 -0.03461737 0.74453634 -0.16790801
000010 c6 2d e7 be a8 30 a6 3e b0 d6 88 3e 90 31 d4 be
       -0.4515211 0.32458997 0.26726294 -0.41444063
000020 e0 05 fd be d9 ea 59 3e 9a e6 09 3f 89 ca 1e 3f
       -0.49418545 0.21280994 0.53867495 0.62027794
000030 ae 81 25 3e 04 6f 81 3e 7d b0 e8 3e 5c 1b 49 3e
       0.1616275 0.2528001 0.4544715 0.19639343
000040 b9 c2 bc be c3 bf 4e be 7f 4e 34 be fc 7f 16 3d
       -0.36867312 -0.20190339 -0.17608069 0.03674315
000050 21 20 d7 3e 82 ea 85 be be a1 bf 3e 63 06 3c be
       0.420167 -0.26155478 0.37428087 -0.18361811
000060 44 00 4a be 02 7c e5 bd 73 a5 94 be 4b 96 ec 3e
       -0.19726664 -0.11205293 -0.29032478 0.46208414
000070 33 04 ad 3e 32 14 52 bf 9c ee 1a 3f e4 56 22 3f
       0.33792266 -0.82062066 0.6052034 0.63413835
000080 96 ce 2f 3f a1 6c 02 bf 87 17 cb bd b9 94 ca 3e
       0.686746 -0.50947005 -0.09916597 0.3956659
000090 5d f9 38 bf 72 a7 0c bf 41 04 d8 3e 42 17 3d 3d
       -0.722555 -0.54943 0.42190745 0.04616476
0000a0 b1 fe 91 bd 4d 61 8e 3d d7 3d 75 bd 5d 90 ef 3c
       -0.07128657 0.069521524 -0.05987343 0.029243642
0000b0 b0 3d b9 3e 4f 7c db 3e 22 48 91 be c8 93 51 3f
       0.36179876 0.42868277 -0.28375345 0.8186612
0000c0 09 c0 cb be 05 a2 e1 be 71 58 68 be 91 67 02 3e
       -0.3979495 -0.44068924 -0.22689988 0.1273482
0000d0 d8 e2 bc 3d 25 8f fd 3e ed 85 ff be ff 4f c4 bd
       0.092229545 0.49523273 -0.49906865 -0.095855705
0000e0 cd 46 3e bd f3 52 03 3f b4 5b a1 bd e0 b7 ad 3e
       -0.04645424 0.51298445 -0.07878819 0.33929348
0000f0 bb da 3f 3e e5 44 0a bf 1a ef da 3e 99 29 f0 be
       0.18735783 -0.54011375 0.42760545 -0.46906736
000100 fc 78 19 3e ea 73 2a bf a6 9b ee be f7 02 08 3f
       0.14987558 -0.6658312 -0.46603125 0.53129524
000110 88 1e 23 bf 23 2e 19 bd 10 94 dc bd 4a 8c af bd
       -0.6371846 -0.037397515 -0.10770428 -0.0857168
000120 06 94 4d 3e 50 c4 9e 3d d7 57 54 bf 29 0c 43 bc
       0.20075998 0.077522874 -0.8294653 -0.011904755
000130 82 c8 ff bd b5 33 a3 be 6c c2 28 be 83 c2 8e 3e
       -0.12489416 -0.31875387 -0.16480416 0.27882776
000140 7f 1e b5 be 85 81 0b bf 80 0c 00 3e a0 35 12 bf
       -0.3537483 -0.54494506 0.12504768 -0.57113075
000150 8f 68 3f 3f 9f f8 ab 3e 80 ad e0 bd 09 9b 85 be
       0.7476892 0.3358812 -0.109705925 -0.26094845
000160 d6 81 e2 3e cc fb 87 bd 7f 3f 34 3e d8 7a 37 3f
       0.44239682 -0.06639823 0.17602347 0.7167182
000170 1c 7b 07 bf f3 f3 27 3d 77 1a f2 3e d3 e4 ff 3d
       -0.52922225 0.041004132 0.47285816 0.12494817
000180 83 ef 08 be e1 55 26 3f 8c d1 52 3f 55 9b 36 3f
       -0.13372616 0.6497479 0.82350993 0.7133077
000190 a7 e8 34 be 36 e3 91 bd de c3 01 be ef b4 06 bf
       -0.17666875 -0.07123415 -0.12672374 -0.5261983
0001a0 85 14 1c 3d cd 5c b2 3e c9 ec 76 3f e0 37 13 be
       0.038105506 0.34836426 0.96455055 -0.14376783
0001b0 d1 f5 fe bd fc 0a 87 be 4e e2 37 3d 2b 65 59 3f
       -0.124492295 -0.26375568 0.044893555 0.84919995
0001c0 2a f2 3c 3f 8a 18 64 be 6b 72 73 bf 9c 85 04 bf
       0.73807013 -0.22274986 -0.9509646 -0.5176637
0001d0 0e 68 96 bc 68 77 48 3d 99 22 e0 3e 4b a9 40 be
       -0.018360164 0.048942 0.43776396 -0.1881458
0001e0 09 c5 9e be d6 31 64 be 26 dd a7 3e 29 a4 ac 3d
       -0.310097 -0.22284636 0.3278591 0.084297486
0001f0 84 08 02 3e 3b e0 bc 3e 4c 1b 8a be c1 1d d0 be
       0.12698561 0.36889824 -0.2697395 -0.406477

conv_layers.1.linear.bias f4 [128]
000000 9b 87 74 3c df 5a da 3d 62 7e 45 3f 76 12 0a bc
       0.014924909 0.106618635 0.7714597 -0.008427253
000010 2e b2 34 be 63 08 0d 3e b2 96 fd 3d 1f 13 07 be
       -0.17646095 0.1377273 0.123822585 -0.13190888
000020 6e 26 2b be 62 49 6a be 79 d8 72 3e d3 b7 11 3f
       -0.16713879 -0.22879556 0.2371539 0.5692112
000030 5c 78 9c 3e 9d 86 05 3c cf bd 56 3f c0 89 13 3d
       0.30560577 0.00814977 0.83883375 0.03602004
000040 c3 b3 d0 bd 01 9e 8b 3e 3e 10 0f be a2 85 85 3d
       -0.10190537 0.27268985 -0.1397104 0.06519629
000050 0f c2 b3 3c 0a fe 2a 3d 71 f6 98 3e 0c 98 a8 bd
       0.02194312 0.041746177 0.2987552 -0.08232126
000060 c9 8c bf bc 92 23 32 be 1f 56 e6 3b 15 ba fb 3c
       -0.023382561 -0.17396381 0.0070293094 0.03072838
000070 3d 4f 77 be 69 e3 b7 be f5 50 23 3f a8 4b 46 3e
       -0.24151321 -0.35915688 0.63795406 0.19364798
000080 2a 05 43 3f 50 c8 f8 bd 1a f5 aa bc ef 0c 82 3e
       0.76179755 -0.121475816 -0.020868827 0.25400493
000090 ef 1c ba be e5 fc fc 3d 38 db d0 3e b3 a1 a5 3f
       -0.363502 0.12352923 0.4079225 1.2939972
0000a0 f1 ef 8b be 11 53 46 bd 19 ae 95 bd cf 92 ee 3a
       -0.27331498 -0.048419062 -0.07308597 0.0018201711
0000b0 4d ec 75 3a 2f 66 d9 bd 34 4c f7 bd 9d 3c 2a 3f
       0.000938122 -0.10615193 -0.120750815 0.6649874
0000c0 69 6e 0c 3c 33 fa 32 be be 6b 38 bd b3 d7 c1 be
       0.008571246 -0.17478256 -0.045024626 -0.37859878
0000d0 ab fd 05 3f bf af 0f 3f 05 0e ed bd c7 b1 54 bd
       0.5234019 0.5612754 -0.1157494 -0.051927354
0000e0 26 f0 ef 3e f2 d2 9e 3e e7 31 da 3d e2 2f c6 3e
       0.46862906 0.31020314 0.10654049 0.38708407
0000f0 ee b8 16 3e a1 c5 39 be 76 95 cd 3e 43 c3 50 be
       0.14718983 -0.18141796 0.40153092 -0.20386986
000100 c3 a8 43 bd 03 76 e1 bc 7f 46 6d be c2 b2 b4 3e
       -0.047768366 -0.027522093 -0.23171423 0.3529263
000110 c6 6b ac bd 06 cf 8b be 87 2c 99 bd b2 5a cc 3d
       -0.08418994 -0.27306384 -0.07479196 0.09978236
000120 24 e6 d0 bd 63 3c ba 3e 4e b9 3b be 8c b7 80 be
       -0.10200146 0.36374196 -0.18332407 -0.25140035
000130 0e 73 d7 3b fb 70 3d be 2a ab 47 be fb 84 5b 3d
       0.006574995 -0.1850013 -0.19498888 0.053593617
000140 9d d1 08 be fa 77 f1 bd 43 8b 94 bd 19 bf f0 bd
       -0.13361211 -0.11790462 -0.072531246 -0.11755199
000150 ab a2 93 3e 7c e0 c1 3e a2 a9 86 3c d3 58 45 be
       0.28835043 0.3786658 0.01643831 -0.19272165
000160 8d 63 f0 3e 07 6e 45 bd 86 de 34 bc d4 c0 cd 3e
       0.4695095 -0.048200633 -0.011039382 0.4018618
000170 3b 19 22 be 7b 59 47 be 6a 39 ca bd 88 56 ad bb
       -0.15829937 -0.19467728 -0.09874232 -0.0052898563
000180 ff 6a de bd 05 bc 8c 3e 53 bd e9 3e 94 22 2a 3e
       -0.10860252 0.27487198 0.45652255 0.16614753
000190 04 93 fb bd 45 dd 2d 3c 83 11 10 be b1 a1 d4 3d
       -0.122839004 0.010611837 -0.1406918 0.10382403
0001a0 f7 d6 69 bd a8 50 d6 3d 55 7a 89 3f 35 5c 4c be
       -0.057089772 0.10464603 1.0740458 -0.19957049
0001b0 a4 bd 1a be b6 f9 86 bd f9 eb 95 3d 87 6c 04 3f
       -0.15111405 -0.06590597 0.07320399 0.517281
0001c0 a8 3d 07 3f 7d 11 29 be db b7 d5 be 2f a3 c0 3e
       0.52828455 -0.16510577 -0.41741833 0.376245
0001d0 96 56 09 be 51 05 70 bd 70 b3 04 3f ba d7 00 bd
       -0.13411936 -0.05859882 0.518363 -0.031455733
0001e0 6c 44 ae bc a0 0d ec bd 56 a4 43 3f 89 a0 5d be
       -0.02127286 -0.11526036 0.7642263 -0.2164327
0001f0 21 4a 9e 3d 9d 91 8e 3e 5a 0e 38 be 77 3f 16 be
       0.07728983 0.2784547 -0.17974225 -0.14672647

conv_layers.1.neighbor_linear.bias f4 [128]
000000 ad 86 c0 bc bc 88 43 3e ef 16 61 3f 2a 0b 88 bd
       -0.023501718 0.19095129 0.8792562 -0.066427544
000010 75 0d 58 be 4c b0 1f 3e 2b 61 96 3d 3a 3f 4c be
       -0.21098883 0.15594596 0.07342752 -0.19945994
000020 53 a8 c1 bd 80 c6 9c bd 1e 43 2d 3e 52 94 fe 3e
       -0.094559334 -0.07655048 0.16920134 0.49722534
000030 7a 5a 51 3e c2 a8 37 3d 43 ae 3f 3f ae 48 1c 3e
       0.2044467 0.044838674 0.7487528 0.152621
000040 40 8d 84 bd 90 7f 72 3e 36 8d 48 be 1c 66 89 bd
       -0.06472254 0.23681474 -0.19585118 -0.06708929
000050 5e 66 de 3d c5 24 f0 3c 11 ba a8 3e 4b f8 14 bd
       0.10859369 0.029314408 0.32954457 -0.036369603
000060 85 00 dd bd ea 49 54 be 19 86 32 bd eb 57 ab 3d
       -0.10791115 -0.20731321 -0.043584917 0.083663784
000070 f7 7d 44 be 05 aa b5 be e6 6b 0f 3f ec a3 75 3e
       -0.19188677 -0.35481277 0.56024015 0.23988312
000080 cb 61 33 3f 9e a5 2d be e1 c3 68 3d f4 e7 3e 3e
       0.70071095 -0.16957709 0.05682743 0.1864317
000090 3f bf ce be 26 18 bb 3d b8 a4 b8 3e 84 15 a3 3f
       -0.40380284 0.09135465 0.3606317 1.2740941
0000a0 a7 35 23 be 15 32 af bd 0b c6 8b bd ed d7 03 3d
       -0.15938435 -0.08554474 -0.06824883 0.032188345
0000b0 4a 08 80 3d 55 df 12 be 6a c3 1d bd 94 ee 13 3f
       0.06251581 -0.14343007 -0.03851644 0.57785916
0000c0 2f cb c1 bd fa 4d 38 be f7 b8 29 be 3f dc 7c be
       -0.09462582 -0.17998496 -0.16574465 -0.24693392
0000d0 c8 4d 09 3f 81 2c 1d 3f 1e 5d 3a 3c 12 b0 be 3c
       0.5363431 0.6139603 0.01137474 0.023277316
0000e0 42 06 ca 3e 80 10 a9 3e a3 c5 bb 3d e4 7d be 3e
       0.394579 0.330204 0.091685556 0.37205422
0000f0 91 21 37 3e a9 2b 7c be 69 2a 8e 3e 05 e4 94 be
       0.17883898 -0.2462603 0.2776673 -0.29080215
000100 93 64 49 3d 7b 04 b7 bd 21 ec 85 be 38 69 9c 3e
       0.04916818 -0.089364015 -0.26156715 0.30549026
000110 7e 74 c8 bd 81 d7 36 be 45 c4 25 be 8f 4c 4b 3b
       -0.09787844 -0.17855646 -0.16188152 0.0031020974
000120 32 5a 4e bd 83 27 f4 3e 7d 20 db bd 70 fb 89 be
       -0.050378986 0.47686395 -0.10699556 -0.26949644
000130 3b 25 91 3c 48 31 02 be 83 8e 2f be cf 44 b0 3d
       0.017717948 -0.12714112 -0.17144208 0.08606874
000140 48 04 d5 bd 60 f2 d1 bd d5 83 af 3b 33 cc 86 be
       -0.10401207 -0.102513075 0.005356292 -0.26327667
000150 9b f6 67 3e db d5 8f 3e e2 4d cd bd 98 a7 fa bd
       0.22652666 0.28092846 -0.100246206 -0.12238997
000160 10 6c 02 3f 5d e6 93 3d 5a 35 88 3c 12 56 c0 3e
       0.5094614 0.07221673 0.016627003 0.37565666
000170 79 83 42 be 51 05 3d be 55 32 07 bd 04 83 2a bc
       -0.18995465 -0.1845906 -0.033006985 -0.010407213
000180 89 ad 9d bd b4 d0 75 3e d5 93 0c 3f 35 a8 0d 3e
       -0.07699115 0.24005395 0.54913074 0.13833697
000190 cb 6c 43 be dd f5 72 3d 8b d3 50 bd 0b ba 41 3e
       -0.1908447 0.059316505 -0.050982993 0.18918626
0001a0 1c 2a 1e bc 9d 14 a4 3c 32 50 8c 3f d2 36 62 be
       -0.009653594 0.02002936 1.0961974 -0.22091225
0001b0 b3 66 04 be 4b 5d 20 be 2c 0a b6 3d b1 0e 01 3f
       -0.12929802 -0.15660588 0.08888659 0.5041304
0001c0 a4 75 ef 3e 29 37 83 be b5 e7 b8 be ff 4c df 3e
       0.4676944 -0.2562802 -0.36114278 0.4361343
0001d0 35 55 6b be bd 13 41 bd 4c 42 0e 3f 48 33 96 3b
       -0.22981723 -0.047137965 0.5556991 0.00458375
0001e0 8f 51 dc bd ac 1a 3a bd 55 48 51 3f 58 42 85 be
       -0.107577436 -0.045435593 0.81750995 -0.2602718
0001f0 e0 e6 70 3d 36 df 77 3e 31 9a 14 be 2f 0c 47 be
       0.05881393 0.24206242 -0.14511944 -0.19438241

conv_layers.2.linear.bias f4 [128]
000000 0a 77 63 3d 55 6d 2f be 2f 30 20 bd c5 bc 96 3d
       0.055533446 -0.1713155 -0.03910845 0.07360224
000010 bd 94 fe ba 26 f2 c1 3c 80 21 04 3e d8 02 3e 3e
       -0.001942299 0.023675036 0.12903404 0.18555772
000020 b8 4c 82 3e 7f 05 ef bd 6c b6 cf 3c 65 c6 a2 bd
       0.25449157 -0.1167097 0.02535554 -0.07947997
000030 3c 8a 58 bd 91 47 80 3e 2e 7a d4 bb 4c cc 92 be
       -0.052866206 0.250546 -0.0064842915 -0.2867149
000040 13 05 19 3e 05 9f 92 3e a7 a5 f3 bd bb 39 0c 3d
       0.14943342 0.28636947 -0.1189683 0.034234744
000050 bc db 2a bd 18 a1 4a bd 47 2f d4 3d 3e d6 4a 3e
       -0.04171346 -0.049470037 0.1036058 0.1980829
000060 1f d7 12 be 4f a3 ce bd 05 1f 89 3c 83 e0 9c bd
       -0.14339875 -0.100897424 0.016738424 -0.0766001
000070 d9 b1 27 bc 96 35 45 bd 1c 2b 0f 3d 14 c3 47 be
       -0.010235273 -0.048146807 0.03495322 -0.1950801
000080 2a c0 f6 bd b8 02 1b be 40 9d 01 be bc 59 55 be
       -0.12048371 -0.15137756 -0.12657642 -0.20835012
000090 4b 76 c8 bc 99 d8 af bc a3 7b 8e bd 70 70 6d 3d
       -0.024470469 -0.021465586 -0.069571756 0.057968557
0000a0 de 08 82 3d d8 88 23 bd 72 74 b1 3d 5c f7 d3 3c
       0.063493475 -0.039925426 0.08664788 0.025874786
0000b0 f8 30 29 be 5d 66 4b bc 9d b8 ef bc 79 06 17 bd
       -0.16522586 -0.012414542 -0.029262835 -0.036871407
0000c0 b8 b3 76 3c 7f 3a c8 3c 50 9c ab bd e7 a9 85 bb
       0.015057497 0.024441956 -0.083794236 -0.004079092
0000d0 f4 4b 04 3f e5 9a a5 bd 7d d0 d2 b9 c0 76 a2 bd
       0.51678395 -0.080861844 -0.00040209657 -0.07932806
0000e0 dc ec 16 be bf cf 4a 3c 4d 07 52 3e 91 24 c0 bd
       -0.14738792 0.012378632 0.20510598 -0.093819745
0000f0 a3 61 6a 3e 64 5a 1c be 1d a0 fe 3b 90 b9 33 bd
       0.22888808 -0.15268856 0.007770552 -0.043878138
000100 14 f6 e2 3d 31 0e f9 3c f0 a4 23 be 8d 92 00 be
       0.11082092 0.030402275 -0.15980887 -0.12555905
000110 65 0e a8 bc 78 05 1d be 3f ff 63 bc 76 23 aa 3d
       -0.020514676 -0.15334117 -0.013915836 0.08307545
000120 70 70 b1 bc 74 d0 80 3e e8 7e de bd 79 3b ff be
       -0.02166006 0.25159037 -0.10864049 -0.49850062
000130 64 03 c8 bd 82 dc 28 be b3 75 17 3b 08 98 45 36
       -0.09766272 -0.16490367 0.0023110926 2.9443781e-06
000140 3f cc 34 3d 74 39 21 3e 4c 72 1e 3f 5b 9a cc bc
       0.044140097 0.15744573 0.61893153 -0.024975946
000150 81 21 b9 bd 73 be bd 3c 9b 6d 4c be c2 5b d7 3d
       -0.090395935 0.023162102 -0.19963686 0.10515548
000160 9e 89 89 3d d7 bc 76 be ec d8 84 38 23 68 1c 3e
       0.067157015 -0.24095474 6.334655e-05 0.152741
000170 fc 43 6d bd 31 eb 46 be 0f 72 8b 3c 5d d5 82 bd
       -0.057926163 -0.19425656 0.01702216 -0.06388352
000180 d9 b9 0d bd 4a c0 c0 3e 7d 3e 53 3d 31 8e fb bc
       -0.034601066 0.37646705 0.051573265 -0.03070745
000190 29 91 8e 3d b3 3b 49 3d c9 b9 bb 3d e7 b5 34 3e
       0.06961281 0.0491292 0.09166295 0.17647515
0001a0 a4 2a e0 bd 0a 38 ce bd 5f 1c 33 bd 36 75 d6 bd
       -0.10945633 -0.10069282 -0.04372823 -0.10471575
0001b0 d2 10 37 be f3 16 da bd 9e 7c 31 be f0 dd ab 3b
       -0.1787751 -0.106489085 -0.17332694 0.005244963
0001c0 65 05 82 bb fb 02 02 3d 86 37 1b bd 82 44 19 3f
       -0.0039679282 0.031741124 -0.03789475 0.5987016
0001d0 99 0e 62 3d d4 52 e0 3d 9e 17 2e 3e 9f 33 9a 3c
       0.055189703 0.10953298 0.17001197 0.018823443
0001e0 f7 fd a3 bd 8d 59 df bc 4b 7c 78 3d 91 31 71 be
       -0.08007424 -0.02726438 0.06066541 -0.23554064
0001f0 e6 a2 0a 3e ca bd 37 bd 6f 20 19 be 96 2c 89 3d
       0.13538703 -0.04485873 -0.14953779 0.06697957

conv_layers.2.neighbor_linear.bias f4 [128]
000000 1a 22 86 3d cd 47 84 bd b5 f2 16 be 23 d0 ec bc
       0.06549473 -0.064590074 -0.14741023 -0.028907841
000010 40 53 bb 3b 43 1b a1 3d 47 f9 d6 3d 13 fc 42 3e
       0.0057167113 0.07866528 0.10496765 0.19041471
000020 98 26 96 3e 17 ad 91 bd ab 3a 90 bd 30 91 92 bd
       0.2932632 -0.071130924 -0.0704244 -0.071565986
000030 6f 5c 6b 3d f6 91 5f 3e e4 9d 1d bc 65 4d 8a be
       0.0574612 0.21833023 -0.009620164 -0.27012172
000040 2d ee bc 3d 48 ba 5e 3e 0a f9 25 be e9 55 36 3d
       0.09225116 0.21750748 -0.16208282 0.044515524
000050 ba 40 f5 bd 26 2f 7e 3d 0b 46 bb bc ac 7a 24 3e
       -0.11975236 0.062056683 -0.022860548 0.1606242
000060 02 a7 86 bb 29 69 9f bd b8 76 5b bd 4e bf 48 bd
       -0.0041092644 -0.077837296 -0.053580016 -0.049010567
000070 35 ac 96 bc b8 f9 b3 3b 2a 34 c6 bd 05 99 57 be
       -0.018392662 0.0054924153 -0.09677918 -0.21054466
000080 59 b5 89 bd 63 83 17 bd 46 ae a3 bd c4 c3 e5 bd
       -0.067240424 -0.036990535 -0.079922244 -0.1121898
000090 c7 ae 22 be 87 d0 1e bd 96 11 d5 bd a8 9c 1e 3e
       -0.15886985 -0.038773086 -0.10403745 0.15489447
0000a0 dd e4 d1 bc 90 a9 30 bc e4 fe 95 3d cf 10 9a bc
       -0.025621826 -0.010782614 0.07324007 -0.018806843
0000b0 56 18 0d be 96 c0 59 bc c0 43 ab bb 7a 8a af bc
       -0.13778815 -0.013290545 -0.0052265823 -0.021428335
0000c0 7a af 63 bd eb 77 8b bd 41 8d 15 3d 0a 21 da bc
       -0.05558727 -0.06809982 0.036511663 -0.026627082
0000d0 d5 e8 f9 3e 37 a5 2d bc 0b 82 56 3d e6 6c 0c be
       0.4881045 -0.010598472 0.052370112 -0.13713416
0000e0 e9 ab f3 bd 14 62 7e 3a f7 b3 81 3e dc cf 9b bd
       -0.11898024 0.0009703946 0.25332615 -0.076080054
0000f0 5d 1f 0e 3e 53 fa 2e be f5 09 1f 3e cf 58 e2 bd
       0.13879152 -0.17087679 0.15531142 -0.11052095
000100 70 15 8b bc 2a 8e 91 3c d5 36 bb bd 3c 25 23 bd
       -0.016977996 0.017767984 -0.09141318 -0.03983043
000110 b9 15 63 bd 2c af 27 be a6 55 b1 bd f9 5a 46 3e
       -0.05544064 -0.16375417 -0.08658914 0.19370641
000120 49 5b 9a bd c3 f4 37 3e e3 be b0 bd cd 9b 03 bf
       -0.075369425 0.17964463 -0.08630159 -0.5140961
000130 89 bf 9b bc 8f 28 da bd 48 56 8b bd a3 9d c0 bd
       -0.01901223 -0.10652267 -0.06803566 -0.09405067
000140 55 a9 f9 3d 8c a6 13 3e 29 e8 0b 3f 29 d1 05 be
       0.12190501 0.14419001 0.54651123 -0.1306807
000150 5c 41 e9 3c 6e 19 cd 3d 90 6f 85 be ae a2 e9 3d
       0.028473549 0.10014616 -0.26061678 0.11407982
000160 3e 00 5f 3d c1 3d 17 be d0 40 4c 3c 24 e9 44 3e
       0.05444359 -0.14769651 0.012466624 0.19229561
000170 d0 ed 11 be e9 b3 c3 bd b6 86 70 3a 69 94 0a be
       -0.14250875 -0.095557995 0.0009175347 -0.13533176
000180 9f 37 37 3c 7c f8 a7 3e da aa fc 3d ae d1 f8 bd
       0.011182695 0.32806766 0.12337275 -0.12149368
000190 8e f5 3e 3d 3b b9 0e 3c c3 22 da 3d 01 38 c8 3d
       0.046620898 0.008711155 0.106511615 0.09776307
0001a0 37 7a 0f be 1c a1 79 bd be bc 12 bb ba 3b d2 bd
       -0.14011465 -0.06094466 -0.002239033 -0.10265298
0001b0 c6 f6 3d be f8 db 11 be 90 38 0f be 08 f6 5a bd
       -0.18551168 -0.14244068 -0.1398642 -0.05345729
0001c0 8f 5b 4a bd da 8d bf 3d 4d 1c e4 bc 3e 47 15 3f
       -0.049403723 0.09353228 -0.027845526 0.5831183
0001d0 b3 d9 85 3d b0 86 84 3c f1 8b 15 3e 67 1f f0 3c
       0.065356635 0.016177505 0.14604165 0.029311849
0001e0 ad 60 13 3d 82 84 6e bd 36 cf 01 bd 64 f8 a4 be
       0.03598087 -0.058231838 -0.031691752 -0.32220757
0001f0 6d 26 e7 3d c0 bb c3 bd a9 2c c4 bb 3b 8f 0c 3e
       0.11286626 -0.09557295 -0.005986769 0.13726513

batch_norms.0.weight f4 [128]
000000 df 32 78 3e f0 64 26 3f 85 08 bf 3f 72 be 62 3f
       0.24238156 0.6499777 1.4924475 0.88571846
000010 83 cc 7b 3e 79 1e 6b 3f 58 0f 9f 3f 72 ee 32 3f
       0.24589734 0.9184337 1.2426558 0.6989509
000020 02 44 26 3f ae 57 8c 3f 5b c9 a6 3f 59 26 9a 3f
       0.6494752 1.0964258 1.3030199 1.2042953
000030 f7 10 6c 3f c6 68 67 3f 3f 1e 9e 3f ea 45 01 3f
       0.92213386 0.90394247 1.235298 0.50497305
000040 7f 66 12 3f 76 1d d1 3e 1a ae 2f 3e 55 9a 99 3f
       0.57187647 0.4084279 0.17156258 1.2000223
000050 47 88 a3 3f 7a 08 12 3f e5 14 a1 3f d3 ea 6e 3f
       1.2775964 0.57044184 1.2584502 0.93327063
000060 48 3d 59 3f aa 86 fa 3e 16 90 c3 3e be 7d 9d 3f
       0.8485913 0.48930866 0.38195866 1.2303998
000070 e5 6e 9f 3f 39 e3 d7 3e 51 6b 6d 3f 18 1a a1 3f
       1.2455717 0.42165545 0.92741877 1.2586088
000080 c3 f8 b9 3f 0d 5f 1b 3f c8 d2 5c 3f 23 b5 1e 3f
       1.4529041 0.6069191 0.86259127 0.6199514
000090 b6 8a d5 3e cd 85 0c 3e 13 f6 95 3f 8e 5f 30 3f
       0.4170739 0.13722916 1.1715721 0.68895805
0000a0 48 b7 cf 3e d0 f4 80 3f 2e ec 55 3f 23 5f 79 3f
       0.4056952 1.0074711 0.83563507 0.9741079
0000b0 82 c5 75 3f 03 d6 85 3f ee 95 0f 3f 4c 26 85 3f
       0.960045 1.0455936 0.5608815 1.0402312
0000c0 1b 74 d6 3e 0d 81 3a 3f 68 a7 33 3f 86 d1 48 3f
       0.41885456 0.72853166 0.70177317 0.7844471
0000d0 2f 21 9b 3e 57 03 ae 3f 24 0f 74 3e 02 d6 7c 3f
       0.30298755 1.3594769 0.238339 0.9876405
0000e0 0e 15 33 3f 94 63 8b 3f d3 53 3a 3f ab a4 92 3f
       0.69954 1.0889764 0.72784156 1.1456503
0000f0 1a 57 a6 3f f1 f5 c1 3e f6 86 82 3f c0 6c 32 3f
       1.2995331 0.3788295 1.0197437 0.6969719
000100 5b 73 8c 3f 38 d5 c1 3e dd f4 20 3f f6 aa 84 3f
       1.0972704 0.37857985 0.6287363 1.0364673
000110 b7 ff a6 3e c7 04 b1 3f de d4 75 3f 6b e6 68 3f
       0.3261697 1.3829583 0.96027935 0.9097659
000120 26 09 dc 3f 0b 2e 11 3f c5 66 24 3e dc 30 6a 3f
       1.7190292 0.5671088 0.16054828 0.91480803
000130 c9 83 64 3f 40 b7 dc 3e 35 0b 4f 3f 45 87 7b 3f
       0.8926359 0.4310856 0.80876476 0.9825328
000140 82 c4 b5 3e 86 28 00 3f 54 fe f6 3e 17 66 ca 3e
       0.35501486 0.50061834 0.48240912 0.39531013
000150 51 cb a3 3f 9e 33 ab 3f f2 65 5f 3f 28 cb 98 3f
       1.2796422 1.3375127 0.8726493 1.1936998
000160 15 1a 4e 3f 7f 34 52 3f f3 87 85 3f 65 cc 82 3f
       0.8050855 0.8211135 1.0432113 1.0218626
000170 c3 c4 36 3f 58 47 56 3f d3 f7 a4 3f fb 9a 8e 3f
       0.71393985 0.8370261 1.288813 1.1141046
000180 b6 de 51 3f 49 71 a3 3f 7b c6 83 3f 83 80 b5 3f
       0.81980455 1.2768947 1.0294946 1.4179844
000190 a1 92 60 3f 7a b2 7f 3f fe a3 72 3f 1c 2f 3a 3f
       0.8772374 0.9988171 0.9478148 0.72728133
0001a0 ff 50 82 3f 27 40 a2 3f fd d8 95 3f e8 37 44 3f
       1.0180968 1.2675828 1.1706845 0.76647806
0001b0 43 d3 90 3f 8a 89 9c 3f d9 5c 29 3f 01 6b b8 3f
       1.1314472 1.2229474 0.661573 1.4407655
0001c0 4a 40 9d 3f e7 90 99 3e cd 3a d3 3e 69 d4 72 3e
       1.2285244 0.29993364 0.412558 0.2371384
0001d0 9a 3a 9b 3e 5e b2 6e 3f 35 ef 68 3f 4e 99 0f 3f
       0.30318147 0.93240917 0.9099 0.560933
0001e0 8e fc 2d 3f 57 7e 4c 3f 13 eb 5e 3f 44 a9 6e 3f
       0.6796349 0.7988028 0.87077445 0.9322703
0001f0 7e f1 5b 3f 17 d6 78 3f ee d8 92 3f c4 80 6e 3f
       0.8591536 0.97201675 1.1472452 0.9316523

batch_norms.0.bias f4 [128]
000000 38 98 b3 3c 16 ec 64 be 49 6e f5 3d 68 8a 90 be
       0.02192317 -0.22355685 0.11983926 -0.28230596
000010 d6 06 dc be 04 78 88 bd fc d2 eb 3e 69 f2 96 3e
       -0.42973965 -0.06663516 0.46059406 0.2948182
000020 d6 68 cc be 27 67 98 bd 12 f0 8f 3c ce 3d 86 3d
       -0.39923733 -0.0744155 0.01757053 0.06554757
000030 f5 d8 48 bd b2 be e0 3c 2e bc 08 3c e8 cf 9f bc
       -0.04903503 0.02743468 0.008345647 -0.019508317
000040 57 85 ab be 36 22 d3 be b0 43 ce be 99 72 1f 3e
       -0.33500168 -0.41237038 -0.40286016 0.1557106
000050 96 7d 26 3d bc cd 82 be d1 e6 24 bd bc 6c 3d be
       0.04064711 -0.25547588 -0.040259186 -0.1849851
000060 d8 15 a9 be 3b 19 8b bd cf 0e 0d be bc 38 54 3c
       -0.33024478 -0.06791922 -0.1377518 0.01295298
000070 4a a7 8c bd 5a 0b 57 be c9 fa ec 3c e9 80 81 3e
       -0.06867845 -0.21000424 0.028928177 0.25293663
000080 13 ce dc 3a 67 e3 26 bf 04 08 9b bd e7 f0 39 3c
       0.0016846083 -0.6519074 -0.07569888 0.0113489395
000090 87 84 35 be 62 e8 65 bf f9 0b 7d 3d db cf 3f be
       -0.17726336 -0.89807713 0.061778996 -0.18731634
0000a0 af a5 43 be a5 7a 81 bd 7a bd 7a bc aa 63 0b 3b
       -0.19106172 -0.06322221 -0.015303964 0.0021269121
0000b0 f0 9e 45 3d 22 aa b2 3c 14 03 f4 bd c8 33 84 3d
       0.048247278 0.021809641 -0.119146496 0.06455189
0000c0 7e 34 8a be 61 ba dd be 11 52 a1 bd 73 ef 51 bd
       -0.26993173 -0.43306258 -0.07876981 -0.051253747
0000d0 1d 97 19 be 4b 0f 80 3d 60 9f 15 bf 2f 41 62 bd
       -0.14999051 0.06252917 -0.5844631 -0.055237945
0000e0 84 c0 6c bd c0 24 3b 3e 2b ae 2e be 7f 7c 88 3d
       -0.057800785 0.18275738 -0.17058627 0.06664371
0000f0 2c 85 1d 3f 1d 9b 90 be 8b 0d 02 3d df 8f 97 be
       0.6153133 -0.28243342 0.031751197 -0.29601952
000100 4b 4f a1 bc 5d ff 25 bf 76 0b 91 be c3 7e 59 3d
       -0.01969113 -0.6484278 -0.28329057 0.053099405
000110 7c 9e f1 be 62 ee d8 3d 97 11 a8 bc a4 9d ed bd
       -0.47191226 0.10592343 -0.0205162 -0.11602333
000120 65 98 69 3e e0 aa 9b bd 96 19 5d bf 90 9c af 3f
       0.2281204 -0.07600951 -0.86367166 1.3719654
000130 ac c9 e7 bc de c8 84 3d 43 b3 00 be f4 d4 86 bd
       -0.028294407 0.06483625 -0.12568383 -0.06583586
000140 19 91 f9 3d 89 67 d4 be 97 db 65 bd 10 e8 e7 be
       0.12185878 -0.4148524 -0.05611762 -0.45294237
000150 e1 8e 06 3d 86 a1 91 3e dd 5a cf bd f1 87 a6 be
       0.032851104 0.28443545 -0.10124753 -0.3252559
000160 2b 16 ac 3b 4b a1 b6 bd fa 96 7f 3e 10 91 59 3d
       0.005251666 -0.08917483 0.24959937 0.053116858
000170 48 97 be be 75 37 f3 bd aa 2b 4e bc b7 4f 80 3e
       -0.37224793 -0.11875812 -0.0125836525 0.25060818
000180 24 5d 90 bb 79 96 d4 bd 2d e4 69 39 71 ac 0b bc
       -0.0044056345 -0.10380263 0.00022305614 -0.008525
000190 5f ab 59 be 94 b0 45 3c a2 3a 74 3d 92 a3 dd be
       -0.21256779 0.012066025 0.05962623 -0.43288857
0001a0 99 9b 0f bd 97 55 67 3b 72 8a 8c 3d 9c 90 c1 3d
       -0.0350605 0.0035298818 0.06862344 0.0945141
0001b0 e0 39 aa 3e 40 5f 39 3f 29 05 83 be 05 9e a9 3d
       0.3324728 0.72410965 -0.25589874 0.08282093
0001c0 34 af 21 3d 46 22 39 3d 25 34 85 bf 19 13 fa be
       0.039473727 0.0451987 -1.0406538 -0.48842695
0001d0 aa 09 c1 bd e8 3e 3e bd 23 3d 0a 3d 42 2e 63 bd
       -0.094256714 -0.04644671 0.03374971 -0.055464037
0001e0 c9 ba 56 be 29 8a 17 be 73 63 83 bc a4 c8 24 be
       -0.2096969 -0.14798798 -0.016038632 -0.16092163
0001f0 e0 ca 6e 3d 74 96 b5 bc 52 bd 6b 3d a4 de 9d be
       0.058298945 -0.022166468 0.057553597 -0.30833924

batch_norms.0.running_mean f4 [128]
000000 21 48 50 bf c0 25 96 3e 9d 07 8e 3e 4c 8b 98 be
       -0.8136006 0.29325676 0.27740183 -0.29793775
000010 ce 3b 24 bf 5a ea cd bf 93 72 9b be 38 ab e2 be
       -0.64153755 -1.6087143 -0.3036085 -0.44271255
000020 3a 81 1b be 92 a1 90 bd 79 9b 19 3e 9a c1 3c 3e
       -0.15186015 -0.07062067 0.15000714 0.18433228
000030 6f a0 50 3f d6 fa b9 3e de 3c f0 3c 5f f4 3a bf
       0.814948 0.36324185 0.029325899 -0.7302913
000040 36 84 bc be f0 67 88 bf 05 2f e9 bd f3 8f 81 3e
       -0.3681962 -1.0656719 -0.113859214 0.25305137
000050 cf d1 2f 3e 18 6d 52 bf af 61 1e be ba 84 8d bf
       0.1716988 -0.82197714 -0.15466951 -1.105613
000060 d2 e3 16 3e b0 ab 0b bd c1 a3 ab be 11 25 b0 bc
       0.14735344 -0.03409928 -0.33523372 -0.02150205
000070 94 3e 31 bf 97 c3 9e be ef c4 24 3e 34 4c b0 3e
       -0.6923611 -0.31008598 0.16090749 0.34433138
000080 f6 8c 15 3c d3 ee 34 bf d7 d6 c9 bd 24 d5 64 3e
       0.009127846 -0.70676917 -0.098554306 0.22346932
000090 8d c2 1d bf f4 3d 98 bf 1a 46 97 3e 6a 1f 0f c0
       -0.61624986 -1.1893907 0.2954567 -2.2362924
0000a0 69 ef a0 3d b5 b9 17 bf 97 0a 90 3e f7 ad 8e 3d
       0.07858164 -0.5926774 0.2813308 0.06966775
0000b0 7a ef e2 3e ad f4 0f 3e e7 c6 1e bf 89 83 8f 3e
       0.4432333 0.1405818 -0.6202225 0.2803004
0000c0 ac bb 83 be 87 b3 f8 be d5 39 cc be ca cc 09 3f
       -0.2572912 -0.48574468 -0.39887872 0.5382811
0000d0 10 f0 d8 3f 5e 05 1f 3e 81 cc 74 bf 66 1b fb bd
       1.6948261 0.15529391 -0.9562455 -0.12261085
0000e0 ea 94 52 3d 0b 3a 40 3e 1f 2b 97 bf 74 78 37 3e
       0.051411547 0.18772142 -1.1810035 0.17917043
0000f0 a0 c1 e8 3c 29 76 4b bf 58 2d 7e 3e 45 45 96 bd
       0.02841264 -0.79477173 0.24821985 -0.07337431
000100 aa 72 c4 3b 86 ed ce bc b1 ed 56 be dc 52 ab 3f
       0.0059951143 -0.025259744 -0.2098911 1.3384662
000110 de 35 05 bf 56 c6 30 be 04 bb 86 bd dc 9f d0 3d
       -0.5203532 -0.17263159 -0.06578639 0.10186741
000120 61 74 07 3e 9c 31 90 be 53 29 4a bf 56 5a 70 be
       0.13227989 -0.2816285 -0.78969306 -0.2347196
000130 63 ce 84 3e af 9a da be 12 ea 1d bf 19 ea 2e bf
       0.2593871 -0.4269614 -0.6168529 -0.68325955
000140 7d 2d 7b bf f2 6a 1d 3f c0 fa aa bf 7d 73 13 bf
       -0.98116285 0.6149131 -1.3357773 -0.57598096
000150 59 6b 18 3e 36 b0 20 3e 19 d9 5f bf 08 ac 1d bd
       0.148847 0.15692219 -0.8744064 -0.03849414
000160 85 0f ff 3e c2 8c 79 3e e9 29 06 3e 11 7d bf 3e
       0.49816528 0.24370101 0.13101925 0.37400106
000170 a6 40 7f be bb 4c 47 3e 54 f8 21 bd de d2 e9 bd
       -0.24927005 0.19462864 -0.039543465 -0.11417173
000180 14 0f b4 bc 80 c4 fe be 2f fd 60 3e f6 9d ed bc
       -0.021979846 -0.49759293 0.21971582 -0.029005986
000190 34 34 59 3e 4e 48 7c ba 53 48 56 3e c1 aa f4 3d
       0.2121132 -0.00096238113 0.20926027 0.11946631
0001a0 05 a8 bd bd 3b 9c c7 3c 7c 05 82 3e 2c 29 ae bf
       -0.09260563 0.024366489 0.2539481 -1.3606315
0001b0 b7 cc c1 3c ce 00 9f be 63 02 1c bf 7a e7 92 3e
       0.023657186 -0.310553 -0.6094114 0.28692228
0001c0 30 81 38 3e 2b 9b e6 be 60 8a 16 bf be 7d 28 bf
       0.18018031 -0.4504026 -0.58804893 -0.6581687
0001d0 7e 17 9e bf 51 3e 34 3e af 59 47 3f 1e b8 2f 3f
       -1.2350919 0.17601897 0.7787122 0.68640316
0001e0 3a bd 09 bf 76 1d 2f bf 99 fa da 3e 4f d1 e2 be
       -0.5380436 -0.6840433 0.42769316 -0.44300315
0001f0 d7 d0 63 3f c4 98 3a 3f 4d 9f a1 be 56 87 49 3e
       0.8899054 0.7288935 -0.3156685 0.19680533

batch_norms.0.running_var f4 [128]
000000 a1 82 4b 43 3b e8 4f 42 4a d2 03 42 86 13 9f 42
       203.51027 51.976788 32.95536 79.53813
000010 98 5c f1 42 13 64 58 44 24 6c aa 42 13 bf b5 42
       120.68085 865.56366 85.21121 90.87319
000020 8c f6 06 42 19 d5 e5 42 59 81 24 42 4f 93 a4 41
       33.74077 114.91621 41.126316 20.571928
000030 73 07 a0 43 ed 03 97 42 f5 db c6 41 16 e9 36 44
       320.0582 75.50767 24.8574 731.64197
000040 59 41 30 42 1f 23 8f 43 5e 9d 60 43 d5 f6 08 42
       44.063816 286.27438 224.61472 34.241047
000050 46 6b ec 41 b0 da 2b 43 b5 87 38 42 df 3c 97 43
       29.55238 171.85425 46.132526 302.47556
000060 c2 78 44 42 a6 47 9b 41 b8 ae 20 42 8a f2 83 42
       49.117928 19.409985 40.170624 65.97371
000070 c5 37 66 43 23 00 95 40 aa c5 a9 41 54 26 a6 42
       230.21785 4.6562667 21.221516 83.07486
000080 32 b2 be 41 0b e3 b7 42 39 8f 24 42 dc 73 8c 42
       23.83701 91.94344 41.139866 70.22629
000090 36 4e bd 42 1c ba db 43 5f 94 fb 41 5a ea ba 44
       94.652756 439.45398 31.447447 1495.3235
0000a0 d4 49 21 42 72 03 e2 42 e0 7c ea 42 63 00 3f 42
       40.322098 113.00673 117.2439 47.750378
0000b0 d5 e2 a1 42 3f 4a 02 42 cc c3 de 42 14 29 bb 41
       80.94303 32.572506 111.382416 23.395058
0000c0 d3 57 1b 42 16 cf 61 42 85 43 04 43 24 49 c4 42
       38.835766 56.452232 132.26375 98.14285
0000d0 ef 5b 86 44 6b f6 de 41 72 17 63 43 b7 f6 c4 41
       1074.8729 27.870321 227.09158 24.620466
0000e0 2b de 9a 42 20 6a ae 41 da dc ea 43 94 67 b3 41
       77.43392 21.801819 469.7254 22.425575
0000f0 9b 68 2c 42 70 ad 0a 43 19 06 22 42 eb 01 01 42
       43.102154 138.67749 40.505955 32.251873
000100 cf 95 f9 41 7a 65 80 42 61 6a 09 42 73 9e da 43
       31.198149 64.1982 34.353886 437.23788
000110 11 b2 4d 42 0f 24 31 42 e3 5e ce 41 49 6e 7e 42
       51.423893 44.285213 25.796331 63.6077
000120 b9 60 15 42 a8 9b b4 42 7c 69 2c 43 e6 aa a2 42
       37.344456 90.304016 172.41205 81.333786
000130 07 f2 ac 42 61 58 9b 42 51 bc dc 42 4c 75 fb 43
       86.47271 77.672615 110.367805 502.91638
000140 2a 39 99 43 81 a6 4f 43 98 db 83 44 d7 8b e1 42
       306.4466 207.6504 1054.8623 112.773125
000150 0b 46 a4 41 08 f8 3f 42 7e c5 4e 43 e9 80 0f 42
       20.5342 47.992218 206.77145 35.87589
000160 05 d9 af 42 b7 26 d8 42 91 e5 02 42 dc e4 51 42
       87.92387 108.075615 32.724186 52.473495
000170 39 e9 5c 42 4b d0 52 42 d1 0f 06 42 01 2e 58 42
       55.227757 52.70341 33.515446 54.044926
000180 a7 f2 ac 41 71 52 f3 42 8f f9 97 42 30 98 35 42
       21.618483 121.66102 75.98742 45.39862
000190 22 ff 16 42 c1 37 2e 42 6f b7 a6 42 a2 82 44 42
       37.749153 43.554447 83.35827 49.12757
0001a0 7f 0b c7 41 bf 36 d0 41 29 97 8f 41 b7 2f 40 44
       24.880613 26.026731 17.948809 768.74554
0001b0 3a e9 13 42 28 8e 63 42 dd 80 13 43 ff f5 b5 41
       36.97776 56.888824 147.50337 22.745115
0001c0 72 db 1e 42 5f 19 f7 42 40 a4 96 42 97 80 09 43
       39.714302 123.54955 75.3208 137.5023
0001d0 3d 0a 02 44 1e 36 e9 41 2c 45 2a 43 10 79 56 43
       520.16 29.151424 170.2702 214.4729
0001e0 41 2d db 42 6d 8e d7 42 49 25 c8 43 7d c0 04 43
       109.58839 107.778175 400.2913 132.7519
0001f0 05 44 89 43 c2 b6 43 43 df 47 42 42 ec 3e 29 42
       274.5314 195.7139 48.570187 42.311447

batch_norms.1.weight f4 [128]
000000 ce 04 36 3f 3e 4c 50 3f 97 af 95 3f 7e 31 a4 3f
       0.7110108 0.81366336 1.1694211 1.2827604
000010 f2 81 47 3f b5 d0 6d 3f 66 da 80 3f a5 88 69 3f
       0.77932656 0.92896587 1.006665 0.9122413
000020 af 94 8a 3f b2 6a 81 3f 58 ea 80 3f f2 db 76 3f
       1.0826625 1.0110686 1.0071516 0.9642936
000030 67 be 89 3f 11 26 6b 3f 18 b4 74 3f 6c 0c 3f 3f
       1.0761231 0.9185496 0.955873 0.7462833
000040 37 bc 83 3f e3 4e 6d 3f 47 9f 4f 3f f7 2a a6 3f
       1.0291814 0.92698497 0.8110241 1.2981862
000050 f1 52 97 3f 59 59 5b 3f 3c 39 7b 3f 49 f9 8b 3f
       1.1822187 0.8568321 0.9813421 1.0935451
000060 07 8b 67 3f 40 c4 2d 3f dd 94 5e 3f 9c cb 66 3f
       0.90446514 0.6787758 0.869459 0.90154433
000070 a4 10 4e 3f 85 c2 59 3f 65 0d 71 3f 94 51 82 3f
       0.8049414 0.8506244 0.94161063 1.0181146
000080 b6 2e 83 3f 45 ae 65 3f 27 db 91 3f 41 9b 14 3f
       1.024863 0.8971904 1.1395005 0.580494
000090 4e 6c 5f 3f 71 c9 18 3f ee aa 7d 3f b4 01 16 40
       0.87274635 0.59682375 0.99088943 2.343854
0000a0 46 72 31 3f a3 88 80 3f fc ef 4e 3f 7e 17 83 3f
       0.6931499 1.0041698 0.8083494 1.0241544
0000b0 b5 20 84 3f b9 3e 78 3f 77 b2 82 3f fe 51 77 3f
       1.0322481 0.9697071 1.0210713 0.96609485
0000c0 aa 3b 62 3f 8f 8c 9b 3f 12 43 92 3f 13 c2 53 3f
       0.8837229 1.215227 1.1426718 0.8271801
0000d0 5d 4a b8 3f 76 7a 8e 3f f9 4f 40 3f 0e a8 8b 3f
       1.4397694 1.1131122 0.7512203 1.0910661
0000e0 c3 21 35 3f 9f 69 70 3f d1 68 45 3f 8f fc 7b 3f
       0.7075464 0.93911165 0.7711306 0.9843225
0000f0 7b 59 82 3f 08 18 3f 3f 3e 25 7b 3f 8f b8 85 3f
       1.0183557 0.74646044 0.981037 1.0446948
000100 59 91 7c 3f b9 21 84 3f cc 58 80 3f fb be 88 3f
       0.9865928 1.0322791 1.0027099 1.0683283
000110 55 04 5c 3f 3d 59 a8 3f 51 28 8e 3f 05 47 6a 3f
       0.8594411 1.3152233 1.1106054 0.9151462
000120 fd d6 9d 3f 64 41 b0 3f b0 d1 43 3f 6d 35 8f 3f
       1.2331234 1.3769956 0.7649183 1.1188179
000130 a9 1e 91 3f ad a0 48 3f 92 48 4d 3f 1e 39 82 3f
       1.1337482 0.7837017 0.8018886 1.0173681
000140 69 cf 2b 3f 32 09 60 3f 2a 1b 5b 3f 56 c0 5f 3f
       0.6711336 0.8751403 0.85588324 0.87402856
000150 57 76 8f 3f 4a 82 86 3f 16 dc 63 3f 29 2f a1 3f
       1.120799 1.0508511 0.890077 1.2592517
000160 b7 af 5c 3f b1 ad 67 3f 93 82 5f 3f 19 1b 82 3f
       0.8620562 0.9049941 0.87308615 1.016452
000170 cb 24 82 3f 64 25 83 3f 86 df 89 3f 6c ca 85 3f
       1.0167478 1.0245786 1.0771339 1.0452399
000180 97 9c 87 3f 05 02 8a 3f 27 07 52 3f 01 a4 8f 3f
       1.0594662 1.0781866 0.82042164 1.1221925
000190 b9 71 89 3f 0e 7f 6e 3f 41 5e 99 3f af 94 51 3f
       1.073783 0.9316262 1.1981889 0.818675
0001a0 9e 15 95 3f d2 69 69 3f f1 65 81 3f 05 bb 5c 3f
       1.1647222 0.91177094 1.0109235 0.8622287
0001b0 78 f2 8c 3f af 20 9e 3f 37 30 5f 3f a4 e0 89 3f
       1.1011496 1.2353724 0.87182945 1.077168
0001c0 20 9e 93 3f 3e f7 51 3f 9d 3e 51 3f 4c 7b aa 3f
       1.1532631 0.82017887 0.81736165 1.3318877
0001d0 b1 d3 49 3f 8b bc 95 3f 6d 6b 84 3f c6 8f 2f 3f
       0.7883864 1.1698164 1.0345284 0.68578756
0001e0 fc 58 83 3f 63 2b 87 3f fe a4 78 3f 00 76 7f 3f
       1.0261531 1.0560116 0.9712676 0.9978943
0001f0 de 24 66 3f c5 f1 8f 3f 3d 56 a9 3f 8c 0c 8c 3f
       0.89900005 1.1245657 1.3229443 1.0941329

batch_norms.1.bias f4 [128]
000000 ce 4e dd 3e 08 a3 de bd cb 71 be 3b 3a 7b 1f 3e
       0.43224186 -0.108709395 0.005811905 0.15574351
000010 98 a6 9a 3e 11 6b b7 bd 33 ba ec 3d fb 99 31 3f
       0.30205226 -0.08955968 0.11558952 0.6937558
000020 d0 c1 0d 3c 30 c0 14 3e b0 27 5d 3d 5e 95 8d 3d
       0.0086521655 0.14526439 0.053992927 0.06913255
000030 1a 4f 46 bd 91 83 ba bc bc 1e 85 3d 0a 78 1f bd
       -0.04841528 -0.022767814 0.06500003 -0.038932838
000040 d2 03 f9 3d 46 b6 d5 bd 1c ec 13 be 68 50 59 3e
       0.12158932 -0.104351565 -0.14445537 0.21222079
000050 ba f2 8b bc 95 f6 92 bd f0 83 9c bc 29 d8 db bd
       -0.017083514 -0.07175938 -0.019105881 -0.10734589
000060 c4 5a 76 be 51 5d 6f be 93 08 38 bd 11 a8 13 3c
       -0.24058062 -0.23375441 -0.044930052 0.009012238
000070 00 44 85 be 7d ed 92 3e 52 40 7b 3d 13 37 96 3d
       -0.26028442 0.28696814 0.061340638 0.07334723
000080 ba b6 1d 3d d4 d3 2d be 8a c5 8c bd ce 01 a5 bd
       0.03850434 -0.16975337 -0.06873615 -0.08056985
000090 f8 f3 95 3e ad 23 6a bd 84 19 86 3d a2 62 58 be
       0.29287696 -0.05716293 0.065478355 -0.21131375
0000a0 60 e5 77 be 1e 8d ac bd 65 92 0a bc 6c c1 be bc
       -0.24208593 -0.084253535 -0.008457755 -0.02328559
0000b0 c3 df 6d bc cb ce 79 bc c3 78 43 3e 0b 18 8a 3d
       -0.014518681 -0.015247057 0.19089036 0.06742867
0000c0 60 89 a1 bd 9b ce e7 3d cb f3 80 3d 10 0e aa be
       -0.0788753 0.11318704 0.062965 -0.33213854
0000d0 8b 83 16 be 35 5a b4 3d ec 2a 05 3e 15 d2 56 bd
       -0.14698617 0.08806268 0.13004655 -0.052446444
0000e0 15 c2 e7 bb 4e df fb 3b d5 51 a0 bd 1e 1e e5 bb
       -0.007072697 0.007686532 -0.07828108 -0.0069921156
0000f0 b0 ba 1a 3d d7 7a 4f 3e a4 f8 6f bd f8 c6 b9 3e
       0.037775695 0.20261703 -0.05858673 0.36284614
000100 2c a2 6e bb 7a 9e a7 bd bf 96 ca 3e e2 e0 8c 3b
       -0.003641258 -0.08184524 0.39568135 0.004299269
000110 30 63 e0 bd d8 83 f4 3e 32 ac ff bc 34 0f 09 bd
       -0.109564185 0.4775684 -0.031210039 -0.033461764
000120 e2 fb 91 bc 9e c2 14 be 66 7f 0c 3f 89 4f 87 3f
       -0.017820302 -0.14527366 0.54881895 1.0571147
000130 c5 48 be 3e 2e 8f b3 3e f3 ce 69 bd 08 bd b5 bd
       0.37164894 0.35070175 -0.057082128 -0.088739455
000140 aa 15 27 3f 96 74 62 bd 1d 78 40 be 28 b4 fd 3d
       0.6526743 -0.055286966 -0.1879582 0.12387878
000150 72 fe 3a 3d da 82 d7 3c 05 55 9c bd 39 07 5d 3e
       0.045652814 0.026307512 -0.07633404 0.21584786
000160 94 b7 f1 bc 5a c8 2e bb ff 8f a5 3b 44 bc 7b 3d
       -0.029506482 -0.0026669712 0.005052566 0.06145884
000170 d4 9b cd 3e 60 0d cd 3e dd a1 67 3d a8 f8 1a bd
       0.4015795 0.40049267 0.05655085 -0.037834793
000180 53 86 22 3e c8 db d2 bc c1 6b 21 bd bd 14 9b 3c
       0.15871553 -0.025739565 -0.039409403 0.018930787
000190 a6 b4 07 be f5 e8 92 3d fb a5 27 3e b1 99 8d 3e
       -0.13252506 0.07173339 0.1637191 0.2765632
0001a0 d3 6f 3d 3d 21 32 1a bc 96 da 8c 3d 2f dd 95 3e
       0.046249222 -0.009411366 0.068776295 0.29270312
0001b0 d6 0d b9 3e 7c 7c 21 3f 38 10 12 be d1 46 78 bc
       0.36143368 0.63080573 -0.14264 -0.015153603
0001c0 b4 8d dd bc 82 f9 61 3e 0e dc d8 be c5 8e 73 bd
       -0.027045108 0.22067836 -0.42355388 -0.059462328
0001d0 bc 5d 1f be 12 2a b4 bd 7b a8 4b 3c e3 36 0c 3e
       -0.155631 -0.08797087 0.012430306 0.13692813
0001e0 96 2a 02 3f fb e4 c8 bd 5c 69 b4 3d d4 f6 f4 be
       0.5084623 -0.098092996 0.08809158 -0.47844565
0001f0 f5 f7 27 bc 60 6c 96 bb 31 09 b0 3e 33 23 e1 3e
       -0.010251989 -0.004590556 0.34382012 0.43972167

batch_norms.1.running_mean f4 [128]
000000 72 98 4c bf 9e c9 4e bf d2 6d 0a 3b 7e c9 c5 be
       -0.79920113 -0.80776393 0.0021122587 -0.3863029
000010 f2 e4 25 bf 5a 64 21 bf 84 85 8c be 3d 3a ec be
       -0.6480247 -0.6304375 -0.27445614 -0.46138182
000020 10 e0 78 be bb b4 1a be 4b c1 b8 bd 9c ec 7c 3e
       -0.24304223 -0.15108006 -0.09021243 0.24699634
000030 07 97 74 be 82 9e db bd 14 d5 88 3e 34 9b 16 be
       -0.23885737 -0.10723592 0.26725066 -0.14707643
000040 db 0e dc be 23 27 25 bf 31 43 44 bf 80 1d 00 be
       -0.42980084 -0.6451284 -0.76665026 -0.12511253
000050 62 c7 94 bd e0 71 14 bf ce 84 2d bd b5 94 30 bf
       -0.07264592 -0.5798626 -0.04236298 -0.6897691
000060 89 da 24 be 84 9f 3d bf 6e 28 05 bf 39 9d 08 3e
       -0.1609899 -0.74071527 -0.52014816 0.13341226
000070 7b 31 2d be eb 43 32 bf 2b be 56 3e d0 05 7c 3e
       -0.16913407 -0.69634885 0.20970981 0.24611592
000080 12 d5 fe 3d c8 04 6d bf e2 b6 bc be c7 ff 8a 3e
       0.12442984 -0.9258542 -0.3685828 0.27148268
000090 b4 ba 35 bf 06 54 0d bf d7 cc 0d 3e 96 74 6e be
       -0.7098801 -0.55206335 0.13847671 -0.23286662
0000a0 42 c6 2f bf 43 7b e7 be 63 1e 06 3d d3 44 f7 bd
       -0.6866189 -0.4521123 0.032743823 -0.12073674
0000b0 23 37 a0 bd 2d 85 1d be b0 a0 0f bf 9c c1 68 3e
       -0.078230165 -0.15382834 -0.56104565 0.22730106
0000c0 f0 a9 cb be 84 a5 76 be 80 44 18 bf 3b 0b 4d bd
       -0.3977809 -0.24086577 -0.5947952 -0.05005954
0000d0 10 85 d2 be eb 01 89 3e ea 1f 2a bf f6 63 67 be
       -0.41117144 0.26759276 -0.66454947 -0.22596726
0000e0 0d c7 ca 3e b8 8b 1c be 7e d2 80 bf 53 10 82 3d
       0.3960499 -0.15287673 -1.0064237 0.0635077
0000f0 05 cb ec bd ad d9 80 bf 98 5d 01 be 9b 7d 54 be
       -0.115621604 -1.0066429 -0.1263336 -0.2075104
000100 ec 9e 0a be 47 81 be be d1 44 d1 be 12 5c 0c bd
       -0.13537186 -0.37208006 -0.40872815 -0.034267493
000110 d0 ee 11 bf 5c 0d 99 be 6a 51 61 be 06 73 07 be
       -0.57005024 -0.29893005 -0.22003713 -0.13227472
000120 f3 98 59 be 96 2f b0 be e5 df 4e bf 6f 46 08 bf
       -0.21249752 -0.34411305 -0.80810386 -0.53232473
000130 03 98 63 be 37 f7 31 bf d4 b9 cf be db 5a 03 bf
       -0.22225957 -0.69517845 -0.40571463 -0.5131051
000140 55 e8 34 bf b2 ec b2 be 4c 54 67 bf 0a ba 3e bf
       -0.7066701 -0.3494621 -0.90363 -0.74502623
000150 c1 5d 11 3e e4 92 1a 3d be 7f 52 bf a7 ed 27 be
       0.1419592 0.037737742 -0.8222617 -0.16399251
000160 90 66 6c bd f4 18 55 bd 5e cc 92 bd 22 a9 16 3e
       -0.057715 -0.05202575 -0.07167886 0.14712957
000170 9c 2d d8 be 08 15 c4 be 04 c9 34 be dc 32 a0 bd
       -0.42222297 -0.38297296 -0.17654806 -0.07822201
000180 01 b1 36 be 67 8f 65 bd 58 1e e7 bd 5c 04 98 3d
       -0.17840959 -0.056044962 -0.112850845 0.074227065
000190 72 7a 55 be e8 3a fa bc 4b 57 93 be f8 ee 83 be
       -0.2084749 -0.030545667 -0.28777537 -0.25768256
0001a0 a4 19 30 be 2c a7 54 bb 6e 30 0a 3e 5a 6c 4a bf
       -0.17197281 -0.0032448275 0.13495037 -0.7907158
0001b0 e0 47 db bd 37 81 af be d0 43 e6 be 22 4f 35 bd
       -0.107070684 -0.3427827 -0.44973612 -0.04426492
0001c0 e8 c8 ac bd 50 43 13 bf 4f 8c 2b bf 31 d2 0a bf
       -0.08436757 -0.57524586 -0.6701097 -0.54226977
0001d0 af 52 69 bf 34 3f 93 be ee 89 f8 bb 31 d9 97 be
       -0.9114179 -0.28759158 -0.007584802 -0.2965789
0001e0 7e 9e 0c bf 4c 05 0a bf 6f f5 68 3e e2 04 b8 be
       -0.5492934 -0.5391433 0.22749875 -0.35941225
0001f0 a0 1d a7 bd 2d 90 1b bd 04 8d af be 41 7a 16 be
       -0.081599474 -0.037979294 -0.34287274 -0.14695074
